assets/smpl_params_tennis.npz (npz, 107622 bytes, 6 tensors)

body_pose f4 [312, 63]
0	0x3ddc350e	0.10752307
1	0x3e133157	0.1437429
2	0x3e28a02f	0.16467355
3	0x3bb78461	0.0056004976
4	0xbe60474f	-0.21902202
5	0xbe2958bc	-0.16537756
6	0x3e031106	0.12799463
7	0x3bdb73cf	0.006697155
8	0x3d4d2b61	0.050090197
9	0x3e72bec5	0.23705585
10	0x3d839376	0.0642461
11	0xbd1da060	-0.038483024
12	0x3d12adb5	0.03581019
13	0xbeae0a2f	-0.33992144
14	0x3da24f7a	0.07925315
15	0xbd22d580	-0.03975439
16	0x3b771ee6	0.0037707626
17	0x3d8c6d17	0.06856745
18	0xbc039507	-0.008031136
19	0x3e806288	0.25075173
20	0xbd41f6f9	-0.047354672
21	0x3d031e56	0.032011352
22	0xbe96c40a	-0.2944644
23	0x3c368de3	0.011142227
24	0x3e18c4c1	0.14918806
25	0xba60a1cf	-0.0008569033
26	0x3d89a0d2	0.06720127
27	0x3c22a80f	0.009927764
28	0xbc5b8dc4	-0.013400499
29	0xbc0fa4c8	-0.008767314
30	0xbc930a58	-0.017949268
31	0x3bffe38c	0.007809108
32	0x3d5ce464	0.053928748
33	0x3e0c064d	0.13674279
34	0xbda9ba9b	-0.08287545
35	0x3d92e318	0.07172221
36	0x3d03c777	0.032172646
37	0x3cf66e0e	0.030081775
38	0xbdf71cd3	-0.12066045
39	0x3c8ce8f0	0.017200917
40	0x3d4b762a	0.049673237
41	0x3d2dc710	0.04242617
42	0xbd2556a5	-0.040365834
43	0xbc3b372d	-0.011426729
44	0x3d932a21	0.0718577
45	0x3e6612a7	0.22468053
46	0xbe4e41e8	-0.20142329
47	0xbf79a4ef	-0.97517294
48	0x3e521dc6	0.2051917
49	0x3df416e4	0.119184285
50	0x3f191975	0.5980447
51	0x3f09b911	0.53798014
52	0xbf8314cf	-1.0240725
53	0xbdbf4e6c	-0.0934113
54	0x3f30f19c	0.69118667
55	0x3f91ccf9	1.1390678
56	0x3e097dce	0.13426897
57	0xbcb91c3c	-0.022596471
58	0xbe65376f	-0.22384427
59	0x3e665264	0.22492367
60	0x3e95db1f	0.2926874
61	0x3e4437e7	0.1916195
62	0xbdfa2a10	-0.12215054
63	0x3da3e513	0.08002677
64	0x3e0deb26	0.13859233
65	0x3e2d1bdc	0.16905159
66	0x3cfc7f45	0.030822406
67	0xbe60e428	-0.21962035
68	0xbe222b38	-0.15836799
69	0x3e06e875	0.13174613
70	0x3c2b0ea6	0.010440504
71	0x3d794d8a	0.060864963
72	0x3ea1be6e	0.315906
73	0x3db581be	0.08862637
74	0xbd3484ec	-0.044072077
75	0x3d03e498	0.032200426
76	0xbea4a60c	-0.32157934
77	0x3db66dae	0.089076385
78	0xbcc5ec80	-0.024160624
79	0x3a5f7593	0.0008524295
80	0x3d9100c0	0.07080221
81	0x3d05a2b3	0.032625865
82	0x3e86ea5c	0.26350677
83	0xbd456610	-0.048193038
84	0x3bfbf6f9	0.0076893535
85	0xbe8e1a54	-0.27754462
86	0x3b6614dd	0.003510765
87	0x3e17aaa5	0.1481119
88	0xbae0b0a2	-0.0017142484
89	0x3d81243f	0.063057415
90	0x3c2f669c	0.010705616
91	0xbc492926	-0.012277877
92	0xbc1a1dcd	-0.009406519
93	0xbca602ca	-0.020265002
94	0x3be8bd5b	0.007102651
95	0x3d5eb14d	0.054368306
96	0x3e12001f	0.14257859
97	0xbda7dc32	-0.08196296
98	0x3d855f3c	0.06512305
99	0x3d32e05b	0.043670993
100	0x3cc41f82	0.023940805
101	0xbdf7917e	-0.12088297
102	0x3cb52423	0.022111958
103	0x3d5f5b3c	0.054530367
104	0x3d1d6317	0.038424578
105	0xbd266a0b	-0.040628474
106	0xbc7a72a4	-0.0152861215
107	0x3d8157a1	0.06315542
108	0x3e67f587	0.22652255
109	0xbe3ab653	-0.18233614
110	0xbf789c82	-0.9711381
111	0x3e4574bc	0.19282812
112	0x3de92ba6	0.113852784
113	0x3f112817	0.567018
114	0x3f121748	0.57066774
115	0xbf730987	-0.9493641
116	0xbdf9e645	-0.122021236
117	0x3f31622a	0.6929041
118	0x3f92b7a2	1.146229
119	0x3e1b9a48	0.15195572
120	0xbc936a16	-0.017994922
121	0xbe5a963e	-0.21346375
122	0x3e587db9	0.2114171
123	0x3e8f43c0	0.27981377
124	0x3e492c84	0.19645888
125	0xbdfc58f3	-0.12321653
126	0x3d653b73	0.0559649
127	0x3e07d8bd	0.13266273
128	0x3e238e59	0.1597227
129	0x3d4c2877	0.049843278
130	0xbe586a9c	-0.21134418
131	0xbe1a2f3a	-0.15057078
132	0x3e0bbe0d	0.13646717
133	0x3c6f7516	0.014615318
134	0x3d891f87	0.066954665
135	0x3ebe3623	0.37150678
136	0x3dce9879	0.100876756
137	0xbd4ff5ac	-0.0507714
138	0x3d008fb5	0.03138705
139	0xbe9496d6	-0.2902133
140	0x3db7e719	0.08979625
141	0xbc6434ea	-0.013928631
142	0xbb40773c	-0.0029367944
143	0x3d938a0a	0.07204063
144	0x3d250237	0.040285315
145	0x3e862539	0.26200274
146	0xbd31e950	-0.043435395
147	0xbca94870	-0.020664424
148	0xbe8ac355	-0.27102152
149	0xbc3c7a32	-0.011503743
150	0x3e1623da	0.14662114
151	0xb9684206	-0.0002214984
152	0x3d6c4c5b	0.057690006
153	0x3c29f61b	0.0103736175
154	0xbc3a7c9d	-0.011382249
155	0xbc17f0c5	-0.0092737125
156	0xbcc6fb1f	-0.024289666
157	0x3bcdba43	0.0062783076
158	0x3d5bf981	0.053704742
159	0x3e187ade	0.1489062
160	0xbd98bd8d	-0.07458029
161	0x3d63053e	0.05542492
162	0x3d3ab5fc	0.04558371
163	0x3c967876	0.018367987
164	0xbdfbe342	-0.12299205
165	0x3cc1c6d6	0.023654383
166	0x3d7182c1	0.058962587
167	0x3d101d76	0.035184346
168	0xbd3e09e6	-0.04639616
169	0xbc321648	-0.01086957
170	0x3d61e2f3	0.055148076
171	0x3e6ab3df	0.22920178
172	0xbe22cfda	-0.15899602
173	0xbf77d0a0	-0.9680271
174	0x3e37e39a	0.17957917
175	0x3dda46fb	0.1065807
176	0x3f09719a	0.5368897
177	0x3f1588be	0.58411777
178	0xbf5fe111	-0.874528
179	0xbe1138b7	-0.14181791
180	0x3f3028ad	0.68812066
181	0x3f91a694	1.1378961
182	0x3e29fbcb	0.16599958
183	0xbc3c3b17	-0.0114886975
184	0xbe4b7ee3	-0.19872622
185	0x3e4e2858	0.20132577
186	0x3e8b9b2b	0.2726682
187	0x3e4c44f5	0.1994818
188	0xbdee1bb5	-0.116263784
189	0x3d0cdc27	0.03438964
190	0x3e005754	0.12533313
191	0x3e12bc64	0.14329678
192	0x3d7d5ffe	0.061859123
193	0xbe525807	-0.20541392
194	0xbe0efe02	-0.13964084
195	0x3e11f295	0.14252694
196	0x3c9e3f26	0.01931722
197	0x3d920e3b	0.071316205
198	0x3ecc4cff	0.39902493
199	0x3ddd814f	0.10815679
200	0xbd558167	-0.05212536
201	0x3cec3593	0.02883414
202	0xbe8abbbb	-0.27096352
203	0x3db6e40c	0.08930215
204	0xbc551367	-0.013005114
205	0xbb40ee9d	-0.00294391
206	0x3d9158ea	0.07097037
207	0x3d126282	0.035738476
208	0x3e87c020	0.26513767
209	0xbd230ee3	-0.03980912
210	0xbd3e5003	-0.046463024
211	0xbe84b871	-0.25921968
212	0xbc54ce57	-0.012988648
213	0x3e17178b	0.14755075
214	0x3b4106a6	0.0029453426
215	0x3d6bb4d9	0.057545517
216	0x3c00010f	0.007812752
217	0xbc433f4d	-0.011916948
218	0xbbfec840	-0.0077753365
219	0xbcd3e223	-0.025864666
220	0x3bdc4c01	0.0067229276
221	0x3d502cf4	0.05082412
222	0x3e222db9	0.15837754
223	0xbd932221	-0.07184244
224	0x3d41e0c5	0.047333498
225	0x3d4f88fd	0.05066775
226	0x3cae1211	0.02124885
227	0xbe03ac48	-0.12858689
228	0x3cce8669	0.025210576
229	0x3d79d929	0.060998116
230	0x3d1c440b	0.03815083
231	0xbd37193f	-0.04470181
232	0xbbd947c3	-0.006630869
233	0x3d2eded3	0.04269297
234	0x3e6d04c1	0.23146345
235	0xbe0256de	-0.1272845
236	0xbf764b49	-0.96208626
237	0x3e284753	0.16433458
238	0x3dda54a4	0.10660675
239	0x3f018a8d	0.50602037
240	0x3f197f25	0.5995963
241	0xbf4fab7b	-0.81121033
242	0xbe26b4e8	-0.16279948
243	0x3f2dff49	0.6796766
244	0x3f8e7c59	1.1131698
245	0x3e30dfa4	0.17272812
246	0xbb72fe58	-0.003707787
247	0xbe3c6b4f	-0.1840031
248	0x3e2d9879	0.16952695
249	0x3e8bd0d7	0.2730777
250	0x3e4dc439	0.20094384
251	0xbdd3f5cf	-0.10349619
252	0x3c2c37eb	0.010511379
253	0x3deab708	0.11460692
254	0x3df3dfe7	0.1190794
255	0x3d9540cf	0.07287752

betas f4 [312, 10]
0	0x3f1a4ea2	0.60276234
1	0xbe9c3216	-0.30506963
2	0xbf062a60	-0.5240841
3	0xbf28af08	-0.65892076
4	0xbd927490	-0.07151139
5	0xbe434a28	-0.19071257
6	0xbe915537	-0.28385326
7	0xbe98ee45	-0.29869285
8	0xbeaeee98	-0.34166408
9	0x3e2bf127	0.16791211
10	0x3f1a4ea2	0.60276234
11	0xbe9c3216	-0.30506963
12	0xbf062a60	-0.5240841
13	0xbf28af08	-0.65892076
14	0xbd927490	-0.07151139
15	0xbe434a28	-0.19071257
16	0xbe915537	-0.28385326
17	0xbe98ee45	-0.29869285
18	0xbeaeee98	-0.34166408
19	0x3e2bf127	0.16791211
20	0x3f1a4ea2	0.60276234
21	0xbe9c3216	-0.30506963
22	0xbf062a60	-0.5240841
23	0xbf28af08	-0.65892076
24	0xbd927490	-0.07151139
25	0xbe434a28	-0.19071257
26	0xbe915537	-0.28385326
27	0xbe98ee45	-0.29869285
28	0xbeaeee98	-0.34166408
29	0x3e2bf127	0.16791211
30	0x3f1a4ea2	0.60276234
31	0xbe9c3216	-0.30506963
32	0xbf062a60	-0.5240841
33	0xbf28af08	-0.65892076
34	0xbd927490	-0.07151139
35	0xbe434a28	-0.19071257
36	0xbe915537	-0.28385326
37	0xbe98ee45	-0.29869285
38	0xbeaeee98	-0.34166408
39	0x3e2bf127	0.16791211
40	0x3f1a4ea2	0.60276234
41	0xbe9c3216	-0.30506963
42	0xbf062a60	-0.5240841
43	0xbf28af08	-0.65892076
44	0xbd927490	-0.07151139
45	0xbe434a28	-0.19071257
46	0xbe915537	-0.28385326
47	0xbe98ee45	-0.29869285
48	0xbeaeee98	-0.34166408
49	0x3e2bf127	0.16791211
50	0x3f1a4ea2	0.60276234
51	0xbe9c3216	-0.30506963
52	0xbf062a60	-0.5240841
53	0xbf28af08	-0.65892076
54	0xbd927490	-0.07151139
55	0xbe434a28	-0.19071257
56	0xbe915537	-0.28385326
57	0xbe98ee45	-0.29869285
58	0xbeaeee98	-0.34166408
59	0x3e2bf127	0.16791211
60	0x3f1a4ea2	0.60276234
61	0xbe9c3216	-0.30506963
62	0xbf062a60	-0.5240841
63	0xbf28af08	-0.65892076
64	0xbd927490	-0.07151139
65	0xbe434a28	-0.19071257
66	0xbe915537	-0.28385326
67	0xbe98ee45	-0.29869285
68	0xbeaeee98	-0.34166408
69	0x3e2bf127	0.16791211
70	0x3f1a4ea2	0.60276234
71	0xbe9c3216	-0.30506963
72	0xbf062a60	-0.5240841
73	0xbf28af08	-0.65892076
74	0xbd927490	-0.07151139
75	0xbe434a28	-0.19071257
76	0xbe915537	-0.28385326
77	0xbe98ee45	-0.29869285
78	0xbeaeee98	-0.34166408
79	0x3e2bf127	0.16791211
80	0x3f1a4ea2	0.60276234
81	0xbe9c3216	-0.30506963
82	0xbf062a60	-0.5240841
83	0xbf28af08	-0.65892076
84	0xbd927490	-0.07151139
85	0xbe434a28	-0.19071257
86	0xbe915537	-0.28385326
87	0xbe98ee45	-0.29869285
88	0xbeaeee98	-0.34166408
89	0x3e2bf127	0.16791211
90	0x3f1a4ea2	0.60276234
91	0xbe9c3216	-0.30506963
92	0xbf062a60	-0.5240841
93	0xbf28af08	-0.65892076
94	0xbd927490	-0.07151139
95	0xbe434a28	-0.19071257
96	0xbe915537	-0.28385326
97	0xbe98ee45	-0.29869285
98	0xbeaeee98	-0.34166408
99	0x3e2bf127	0.16791211
100	0x3f1a4ea2	0.60276234
101	0xbe9c3216	-0.30506963
102	0xbf062a60	-0.5240841
103	0xbf28af08	-0.65892076
104	0xbd927490	-0.07151139
105	0xbe434a28	-0.19071257
106	0xbe915537	-0.28385326
107	0xbe98ee45	-0.29869285
108	0xbeaeee98	-0.34166408
109	0x3e2bf127	0.16791211
110	0x3f1a4ea2	0.60276234
111	0xbe9c3216	-0.30506963
112	0xbf062a60	-0.5240841
113	0xbf28af08	-0.65892076
114	0xbd927490	-0.07151139
115	0xbe434a28	-0.19071257
116	0xbe915537	-0.28385326
117	0xbe98ee45	-0.29869285
118	0xbeaeee98	-0.34166408
119	0x3e2bf127	0.16791211
120	0x3f1a4ea2	0.60276234
121	0xbe9c3216	-0.30506963
122	0xbf062a60	-0.5240841
123	0xbf28af08	-0.65892076
124	0xbd927490	-0.07151139
125	0xbe434a28	-0.19071257
126	0xbe915537	-0.28385326
127	0xbe98ee45	-0.29869285
128	0xbeaeee98	-0.34166408
129	0x3e2bf127	0.16791211
130	0x3f1a4ea2	0.60276234
131	0xbe9c3216	-0.30506963
132	0xbf062a60	-0.5240841
133	0xbf28af08	-0.65892076
134	0xbd927490	-0.07151139
135	0xbe434a28	-0.19071257
136	0xbe915537	-0.28385326
137	0xbe98ee45	-0.29869285
138	0xbeaeee98	-0.34166408
139	0x3e2bf127	0.16791211
140	0x3f1a4ea2	0.60276234
141	0xbe9c3216	-0.30506963
142	0xbf062a60	-0.5240841
143	0xbf28af08	-0.65892076
144	0xbd927490	-0.07151139
145	0xbe434a28	-0.19071257
146	0xbe915537	-0.28385326
147	0xbe98ee45	-0.29869285
148	0xbeaeee98	-0.34166408
149	0x3e2bf127	0.16791211
150	0x3f1a4ea2	0.60276234
151	0xbe9c3216	-0.30506963
152	0xbf062a60	-0.5240841
153	0xbf28af08	-0.65892076
154	0xbd927490	-0.07151139
155	0xbe434a28	-0.19071257
156	0xbe915537	-0.28385326
157	0xbe98ee45	-0.29869285
158	0xbeaeee98	-0.34166408
159	0x3e2bf127	0.16791211
160	0x3f1a4ea2	0.60276234
161	0xbe9c3216	-0.30506963
162	0xbf062a60	-0.5240841
163	0xbf28af08	-0.65892076
164	0xbd927490	-0.07151139
165	0xbe434a28	-0.19071257
166	0xbe915537	-0.28385326
167	0xbe98ee45	-0.29869285
168	0xbeaeee98	-0.34166408
169	0x3e2bf127	0.16791211
170	0x3f1a4ea2	0.60276234
171	0xbe9c3216	-0.30506963
172	0xbf062a60	-0.5240841
173	0xbf28af08	-0.65892076
174	0xbd927490	-0.07151139
175	0xbe434a28	-0.19071257
176	0xbe915537	-0.28385326
177	0xbe98ee45	-0.29869285
178	0xbeaeee98	-0.34166408
179	0x3e2bf127	0.16791211
180	0x3f1a4ea2	0.60276234
181	0xbe9c3216	-0.30506963
182	0xbf062a60	-0.5240841
183	0xbf28af08	-0.65892076
184	0xbd927490	-0.07151139
185	0xbe434a28	-0.19071257
186	0xbe915537	-0.28385326
187	0xbe98ee45	-0.29869285
188	0xbeaeee98	-0.34166408
189	0x3e2bf127	0.16791211
190	0x3f1a4ea2	0.60276234
191	0xbe9c3216	-0.30506963
192	0xbf062a60	-0.5240841
193	0xbf28af08	-0.65892076
194	0xbd927490	-0.07151139
195	0xbe434a28	-0.19071257
196	0xbe915537	-0.28385326
197	0xbe98ee45	-0.29869285
198	0xbeaeee98	-0.34166408
199	0x3e2bf127	0.16791211
200	0x3f1a4ea2	0.60276234
201	0xbe9c3216	-0.30506963
202	0xbf062a60	-0.5240841
203	0xbf28af08	-0.65892076
204	0xbd927490	-0.07151139
205	0xbe434a28	-0.19071257
206	0xbe915537	-0.28385326
207	0xbe98ee45	-0.29869285
208	0xbeaeee98	-0.34166408
209	0x3e2bf127	0.16791211
210	0x3f1a4ea2	0.60276234
211	0xbe9c3216	-0.30506963
212	0xbf062a60	-0.5240841
213	0xbf28af08	-0.65892076
214	0xbd927490	-0.07151139
215	0xbe434a28	-0.19071257
216	0xbe915537	-0.28385326
217	0xbe98ee45	-0.29869285
218	0xbeaeee98	-0.34166408
219	0x3e2bf127	0.16791211
220	0x3f1a4ea2	0.60276234
221	0xbe9c3216	-0.30506963
222	0xbf062a60	-0.5240841
223	0xbf28af08	-0.65892076
224	0xbd927490	-0.07151139
225	0xbe434a28	-0.19071257
226	0xbe915537	-0.28385326
227	0xbe98ee45	-0.29869285
228	0xbeaeee98	-0.34166408
229	0x3e2bf127	0.16791211
230	0x3f1a4ea2	0.60276234
231	0xbe9c3216	-0.30506963
232	0xbf062a60	-0.5240841
233	0xbf28af08	-0.65892076
234	0xbd927490	-0.07151139
235	0xbe434a28	-0.19071257
236	0xbe915537	-0.28385326
237	0xbe98ee45	-0.29869285
238	0xbeaeee98	-0.34166408
239	0x3e2bf127	0.16791211
240	0x3f1a4ea2	0.60276234
241	0xbe9c3216	-0.30506963
242	0xbf062a60	-0.5240841
243	0xbf28af08	-0.65892076
244	0xbd927490	-0.07151139
245	0xbe434a28	-0.19071257
246	0xbe915537	-0.28385326
247	0xbe98ee45	-0.29869285
248	0xbeaeee98	-0.34166408
249	0x3e2bf127	0.16791211
250	0x3f1a4ea2	0.60276234
251	0xbe9c3216	-0.30506963
252	0xbf062a60	-0.5240841
253	0xbf28af08	-0.65892076
254	0xbd927490	-0.07151139
255	0xbe434a28	-0.19071257

global_orient f4 [312, 3]
0	0xbda3353f	-0.0796914
1	0xc02e43c5	-2.7228863
2	0xbdfb74c1	-0.122781284
3	0xbdaa5490	-0.0831691
4	0xc030cbbc	-2.762435
5	0xbe0181c4	-0.12647158
6	0xbdcb45d2	-0.099254265
7	0xc033375b	-2.8002536
8	0xbe04ff79	-0.1298808
9	0xbde7d2c3	-0.113194965
10	0xc03662ed	-2.849788
11	0xbe08be73	-0.133539
12	0xbe05a022	-0.13049367
13	0xc039ef35	-2.905225
14	0xbe168046	-0.1469737
15	0xbe104182	-0.14087489
16	0xc03ddc8b	-2.9665859
17	0xbe2741e8	-0.16333735
18	0xbe1f80a5	-0.15576418
19	0xc041902a	-3.024424
20	0xbe2ca507	-0.16859828
21	0xbe27aff9	-0.16375722
22	0xc044e565	-3.0765011
23	0xbe31df8b	-0.17370431
24	0x3e2b2046	0.1671153
25	0x40485c5b	3.130637
26	0x3e33ff31	0.17577817
27	0x3e25a45f	0.16175984
28	0x4045b30f	3.0890539
29	0x3e357c44	0.17723185
30	0x3e10f20e	0.14154837
31	0x40426688	3.037508
32	0x3e32848a	0.17433372
33	0x3e0588a9	0.13040413
34	0x403fcadb	2.9967563
35	0x3e373777	0.17892252
36	0x3ddfb15d	0.10922501
37	0x403c9239	2.9464247
38	0x3e34bed7	0.17650925
39	0x3dc432af	0.0957998
40	0x4038d63d	2.888076
41	0x3e3c41e7	0.18384515
42	0x3d9ab6dc	0.07554409
43	0x4035d2ef	2.8409994
44	0x3e3f68c8	0.18692315
45	0x3d664cbe	0.05622553
46	0x40329128	2.7901096
47	0x3e3af089	0.1825582
48	0x3d25b311	0.040453974
49	0x403025b1	2.7523005
50	0x3e3673cd	0.17817612
51	0x3c6f1b79	0.014593952
52	0x402d5dfe	2.7088618
53	0x3e3116bd	0.1729383
54	0xbbdb547d	-0.0066934214
55	0x402a5377	2.6613443
56	0x3e2682d9	0.16260852
57	0xbca23c79	-0.019804226
58	0x4028003a	2.6250138
59	0x3e1bcbf2	0.15214518
60	0xbd095026	-0.0335237
61	0x4025ac8c	2.5886564
62	0x3e172124	0.14758736
63	0xbd363cc6	-0.04449155
64	0x40234e5a	2.5516572
65	0x3e0ee469	0.13954319
66	0xbd584284	-0.05279781
67	0x402188b3	2.5239685
68	0x3e03406b	0.12817542
69	0xbd72d77b	-0.05928753
70	0x401ffbba	2.4997392
71	0x3df4364c	0.11924419
72	0xbd7cf346	-0.06175544
73	0x401eb07f	2.4795225
74	0x3de5e0d2	0.11224522
75	0xbd876bdb	-0.06612369
76	0x401e2c04	2.4714365
77	0x3ddc51d8	0.10757798
78	0xbd8cc8bf	-0.06874227
79	0x401e2cb2	2.471478
80	0x3ddaa94e	0.106768236
81	0xbd806afe	-0.06270407
82	0x401e9237	2.4776742
83	0x3ddbf3ce	0.107398614
84	0xbd824dbf	-0.06362485
85	0x401fca4b	2.496722
86	0x3dec1fa9	0.11529476
87	0xbd8839d5	-0.066516556
88	0x4020fb6f	2.5153463
89	0x3e003dba	0.12523547
90	0xbd9914fc	-0.074747056
91	0x40229f00	2.5409546
92	0x3e07c6ef	0.13259481
93	0xbda844df	-0.08216261
94	0x40243581	2.5657656
95	0x3e15083c	0.14553922
96	0xbdb86903	-0.090044044
97	0x4026ba4e	2.6051211
98	0x3e1fb124	0.15594918
99	0xbdbe1dba	-0.09283014
100	0x40295660	2.645897
101	0x3e29bdfa	0.16576377
102	0xbdc3ea04	-0.09566119
103	0x402d4f69	2.7079718
104	0x3e2c0d92	0.16802052
105	0xbdb2914a	-0.08719118
106	0x40313e1a	2.7694154
107	0x3e34c678	0.17653835
108	0xbd9f0f7e	-0.07766627
109	0x4034617b	2.8184497
110	0x3e3b7cce	0.18309328
111	0xbd8c229c	-0.06842539
112	0x40389664	2.884179
113	0x3e378e64	0.17925411
114	0xbd49bbe0	-0.049251437
115	0x403e8da3	2.9773948
116	0x3e358aae	0.17728683
117	0xbd0b456c	-0.034001753
118	0x40433e4f	3.050678
119	0x3e31ac3b	0.17350857
120	0xbcafb37d	-0.021447891
121	0x404682a0	3.1017227
122	0x3e2f6d7a	0.17131606
123	0x3bdd6268	0.0067561157
124	0xc046fbb4	-3.1091127
125	0xbe24747c	-0.1606006
126	0xbb455d5a	-0.0030115456
127	0xc0441305	-3.0636609
128	0xbe1b3741	-0.15157796
129	0xbc9b8f97	-0.018989367
130	0xc040a8ed	-3.0103104
131	0xbe0a61fd	-0.13513942
132	0xbd048d89	-0.03236154
133	0xc03d06b8	-2.953535
134	0xbdfab5d1	-0.1224171
135	0xbd320dad	-0.043470073
136	0xc0391afa	-2.8922715
137	0xbddbf94e	-0.107409105
138	0xbd452c77	-0.048138108
139	0xc0360487	-2.8440263
140	0xbdcc54c6	-0.09977107
141	0xbd788753	-0.06067593
142	0xc0322353	-2.783406
143	0xbdb6411e	-0.08899139
144	0xbd86d202	-0.065830246
145	0xc02eb9c6	-2.7300887
146	0xbda45bd2	-0.08025326
147	0xbd99a748	-0.075026095
148	0xc02a5ebb	-2.662032
149	0xbd8516d7	-0.06498497
150	0xbdaffb14	-0.08592811
151	0xc0255408	-2.5832539
152	0xbd5e7b66	-0.0543169
153	0xbdb61161	-0.088900335
154	0xc021c6c7	-2.5277574
155	0xbd491c77	-0.04909941
156	0xbdb9ca04	-0.090717345
157	0xc01d8e58	-2.461813
158	0xbd30e8bb	-0.0431907
159	0xbdbdf18f	-0.09274589
160	0xc0194103	-2.394593
161	0xbd3818b2	-0.044945426
162	0xbddf7609	-0.10911185
163	0xc015c08f	-2.3398778
164	0xbd61f8a6	-0.05516877
165	0xbdec2606	-0.1153069
166	0xc012e6a7	-2.295328
167	0xbd7e4f7e	-0.06208753
168	0xbdf327ea	-0.118728474
169	0xc0109b4b	-2.2594783
170	0xbd7d693f	-0.06186795
171	0xbe005c63	-0.12535243
172	0xc00e0ad4	-2.219411
173	0xbd638700	-0.055548668
174	0xbe0c7d8d	-0.13719769
175	0xc00c0107	-2.1875627
176	0xbd4ca4c2	-0.049961813
177	0xbe160feb	-0.1465451
178	0xc00aa99e	-2.1666026
179	0xbd347098	-0.04405269
180	0xbe19838f	-0.14991592
181	0xc008ea09	-2.1392844
182	0xbd277e58	-0.040891975
183	0xbe1beb09	-0.15226378
184	0xc007d4c5	-2.1223614
185	0xbd2eaa66	-0.042642973
186	0xbe1a856b	-0.15089957
187	0xc0068cc5	-2.102342
188	0xbd1ae380	-0.037814617
189	0xbe16ef84	-0.14739805
190	0xc00557b9	-2.0834792
191	0xbd088e96	-0.033339106
192	0xbe0f168c	-0.13973445
193	0xc004705f	-2.0693586
194	0xbce4d174	-0.027931906
195	0xbe002e71	-0.12517716
196	0xc00335b1	-2.050152
197	0xbca8bf18	-0.020598933
198	0xbdf4c846	-0.119522616
199	0xc0026bed	-2.0378373
200	0xbca6861d	-0.020327622
201	0xbde22460	-0.11042094
202	0xc0018a76	-2.024076
203	0xbca82bfb	-0.020528784
204	0xbdd7fa91	-0.105458386
205	0xc0009719	-2.0092223
206	0xbc91cffc	-0.01779937
207	0xbdcfc004	-0.10144046
208	0xbffe8478	-1.9884176
209	0xbc9ab27d	-0.018883938
210	0xbdc7d5bd	-0.09757564
211	0xbffd60b0	-1.9795132
212	0xbcb5d47e	-0.02219605
213	0xbdb959a2	-0.09050299
214	0xbffc32c7	-1.9702996
215	0xbcd0f34b	-0.025506636
216	0xbda36926	-0.0797904
217	0xbffa9ffb	-1.9580072
218	0xbceee4b8	-0.029161796
219	0xbd85f949	-0.06541688
220	0xbff9a1e2	-1.9502528
221	0xbcddfff0	-0.02709958
222	0xbd5127b8	-0.05106327
223	0xbff76da5	-1.9330336
224	0xbcd1fc06	-0.02563287
225	0xbd228729	-0.03967968
226	0xbff6d6ec	-1.9284339
227	0xbcd870d3	-0.026420986
228	0xbcf50c68	-0.029913142
229	0xbff5dffe	-1.9208982
230	0xbcd7952c	-0.026316248
231	0xbc9d84f8	-0.019228444
232	0xbff406c8	-1.906457
233	0xbc883de8	-0.016631082
234	0xbc0cd867	-0.008596516
235	0xbff42c77	-1.907607
236	0xbd0c1556	-0.034200035
237	0x3a14aafc	0.00056712306
238	0xbff3a593	-1.9034904
239	0xbd0f8306	-0.035037063
240	0x3c350cd1	0.011050419
241	0xbff31f26	-1.8993881
242	0xbd1872b9	-0.037218783
243	0x3c96be74	0.018401362
244	0xbff2a053	-1.8955177
245	0xbd12286a	-0.035683073
246	0x3cf5ffa4	0.030029126
247	0xbff247b2	-1.892813
248	0xbce0c4dc	-0.02743762
249	0x3d19cf53	0.037551235
250	0xbff1de89	-1.8896037
251	0xbca23b7c	-0.019803755
252	0x3d4a703d	0.049423445
253	0xbff0b076	-1.8803852
254	0xbc06fb3e	-0.008238612
255	0x3d71f671	0.059072915

transl (column-major) f4 [312, 3]
0	0x00000000	0.0
1	0x3b8c178c	0.004275268
2	0x3c84441b	0.016145756
3	0x3cf798d6	0.030224245
4	0x3d3fb5e8	0.04680434
5	0x3d84b45a	0.06479712
6	0x3daf2883	0.08552649
7	0x3dd32568	0.10309869
8	0x3df8f05d	0.12155221
9	0x3e086138	0.13318336
10	0x3e1292ef	0.14313863
11	0x3e1b2759	0.15151729
12	0x3e24d941	0.16098501
13	0x3e331be6	0.17491111
14	0x3e3b5e38	0.1829766
15	0x3e46e3c6	0.19422826
16	0x3e4facef	0.20280813
17	0x3e59df1a	0.21276513
18	0x3e64ac3a	0.22331324
19	0x3e6c523b	0.23078243
20	0x3e762714	0.24038345
21	0x3e7fc5a7	0.24977742
22	0x3e843e86	0.25828952
23	0x3e89eb73	0.26937446
24	0x3e919a60	0.2843809
25	0x3e97bbaf	0.2963538
26	0x3e9d79fd	0.30757132
27	0x3ea62421	0.3244944
28	0x3eab65e8	0.33476186
29	0x3eae5ac2	0.34053618
30	0x3eaff385	0.34365478
31	0x3eaf9d08	0.34299493
32	0x3eb11152	0.34583527
33	0x3eb2ef31	0.34948114
34	0x3eb472ee	0.35243934
35	0x3eb70ae3	0.35750493
36	0x3eb99c0c	0.36251867
37	0x3ebae100	0.36499786
38	0x3ebd458e	0.3696713
39	0x3ec091d0	0.37611246
40	0x3ec3b1b6	0.3822152
41	0x3ec6bf37	0.3881776
42	0x3ec8ea29	0.3924115
43	0x3ecba222	0.39772135
44	0x3ecf3e30	0.40477133
45	0x3ed2e8f8	0.41193366
46	0x3ed5d2fd	0.41762534
47	0x3edbb437	0.4291093
48	0x3edffd9a	0.4374817
49	0x3ee6ce30	0.45079184
50	0x3eeebd25	0.4662868
51	0x3ef30ed7	0.4747226
52	0x3ef871ad	0.48524228
53	0x3eff7c51	0.49899533
54	0x3f039b59	0.51408917
55	0x3f05d8da	0.52284014
56	0x3f078ccb	0.5294921
57	0x3f096403	0.5366823
58	0x3f0b2a82	0.54361737
59	0x3f0c7ebf	0.548809
60	0x3f0cebe8	0.55047464
61	0x3f0df4df	0.5545177
62	0x3f0dacf8	0.55342054
63	0x3f0d357f	0.55159754
64	0x3f0cc1b0	0.54983044
65	0x3f0b5f92	0.54442704
66	0x3f0b7e05	0.54489166
67	0x3f0b0bce	0.5431489
68	0x3f0b1bba	0.5433918
69	0x3f0c5ea0	0.54831886
70	0x3f0c836b	0.5488803
71	0x3f0c8c6b	0.5490176
72	0x3f0bff27	0.54686207
73	0x3f0b40c5	0.54395705
74	0x3f0a0608	0.5391545
75	0x3f09e599	0.53865963
76	0x3f09e805	0.5386966
77	0x3f08e604	0.53475976
78	0x3f09c46b	0.53815335
79	0x3f0a2f5a	0.539785
80	0x3f09dfaa	0.5385691
81	0x3f0a0d58	0.5392661
82	0x3f099ebe	0.53757846
83	0x3f0a974b	0.54137105
84	0x3f0a2db7	0.53976005
85	0x3f0b60f0	0.5444479
86	0x3f0c872e	0.5489377
87	0x3f0dcbb0	0.5538893
88	0x3f0ed7ca	0.5579802
89	0x3f0f9862	0.5609189
90	0x3f105906	0.5638584
91	0x3f115bd0	0.5678072
92	0x3f1323f3	0.5747673
93	0x3f14f9ba	0.5819355
94	0x3f160423	0.5860006
95	0x3f16f19c	0.58962417
96	0x3f17e409	0.5933233
97	0x3f19324a	0.5984236
98	0x3f1ad7bd	0.6048544
99	0x3f1c6438	0.6109042
100	0x3f1dbfd2	0.6162082
101	0x3f1dc566	0.6162933
102	0x3f1ce0fe	0.6128081
103	0x3f1bb13d	0.6081732
104	0x3f17df17	0.59324783
105	0x3f153c82	0.5829545
106	0x3f156d28	0.58369684
107	0x3f0f641c	0.5601213
108	0x3f09b22e	0.53787506
109	0x3f0371e2	0.51345646
110	0x3efae726	0.49004477
111	0x3ef0ce23	0.4703227
112	0x3ee1ae59	0.4407833
113	0x3ed52d59	0.4163616
114	0x3ec7cc84	0.3902322
115	0x3ebbf628	0.3671124
116	0x3eb29b64	0.3488418
117	0x3eac2b0c	0.33626592
118	0x3ea3c594	0.31986678
119	0x3e9ca0b9	0.30591372
120	0x3e99401c	0.29931724
121	0x3e94fdc9	0.29099873
122	0x3e922764	0.28545678
123	0x3e8cc263	0.27492055
124	0x3e888550	0.2666421
125	0x3e8526d9	0.260062
126	0x3e83e56e	0.25760978
127	0x3e782eb0	0.2423656
128	0x3e75793e	0.23972031
129	0x3e7295e6	0.23689994
130	0x3e7159b6	0.23569378
131	0x3e718f72	0.23589876
132	0x3e735242	0.23761848
133	0x3e7e00e4	0.24805027
134	0x3e850696	0.25981587
135	0x3e88dab6	0.26729363
136	0x3e8a7b2a	0.27047092
137	0x3e8a3922	0.26996714
138	0x3e86dcba	0.26340276
139	0x3e832d8c	0.25620687
140	0x3e7fe1b4	0.24988443
141	0x3e792214	0.24329406
142	0x3e72b450	0.23701596
143	0x3e754b48	0.23954499
144	0x3e631108	0.22174466
145	0x3e57d576	0.21077523
146	0x3e54871c	0.20754665
147	0x3e4f48a8	0.2024256
148	0x3e4c7fc6	0.19970617
149	0x3e425f60	0.18981695
150	0x3e374450	0.17897153
151	0x3e2cdaa8	0.16880286
152	0x3e22b9ac	0.1589114
153	0x3e1a97a8	0.15096915
154	0x3e13f25b	0.1444792
155	0x3e0bac35	0.1363991
156	0x3e0164af	0.12636064
157	0x3debca38	0.115131795
158	0x3dcb6251	0.09930862
159	0x3dabdb11	0.08391393
160	0x3da05464	0.07828596
161	0x3d9b3672	0.07578744
162	0x3d969836	0.07353251
163	0x3d96a24d	0.07355175
164	0x3da7a970	0.081866145
165	0x3db4307a	0.08798309
166	0x3dbce668	0.09223634
167	0x3dce80f6	0.10083191
168	0x3ddcf374	0.107886225
169	0x3dec2ef2	0.115323916
170	0x3df61b54	0.12016931
171	0x3dff8cdf	0.12478041
172	0x3e0ae00c	0.1356203
173	0x3e1dd888	0.15414631
174	0x3e305d42	0.17223075
175	0x3e3e0632	0.18557051
176	0x3e556b50	0.20841718
177	0x3e62c132	0.2214401
178	0x3e60c74d	0.21951027
179	0x3e6745cb	0.22585218
180	0x3e6f32e9	0.23359264
181	0x3e79afc1	0.24383451
182	0x3e831395	0.25600877
183	0x3e89aebe	0.2689113
184	0x3e9151c2	0.2838269
185	0x3e9826fe	0.2971725
186	0x3e9b9170	0.30384398
187	0x3e9fe526	0.31229514
188	0x3ea550e6	0.32288283
189	0x3ea95898	0.33075404
190	0x3eaceb56	0.33773297
191	0x3eb0511f	0.3443689
192	0x3eb5238e	0.3537869
193	0x3ebc48fa	0.36774427
194	0x3ec5bd62	0.3862105
195	0x3ecc5185	0.39905944
196	0x3ed1cf73	0.40978584
197	0x3ed74a9a	0.42049104
198	0x3ede34aa	0.43399554
199	0x3ee52043	0.44751176
200	0x3eeab9f2	0.4584499
201	0x3eeda81d	0.46417323
202	0x3eeda223	0.46412763
203	0x3eef1b6c	0.4670061
204	0x3eed601e	0.46362394
205	0x3eeb8dbb	0.4600657
206	0x3eea94a8	0.4581654
207	0x3edfc349	0.43703678
208	0x3edce802	0.43145758
209	0x3ed3e84c	0.41388166
210	0x3ec9032f	0.3926024
211	0x3ec0fcd6	0.376929
212	0x3eb66520	0.35624027
213	0x3ead4507	0.33841726
214	0x3ea379d0	0.31928873
215	0x3e9aae0a	0.30210906
216	0x3e908747	0.28228208
217	0x3e8533d1	0.26016095
218	0x3e77aa92	0.24186161
219	0x3e634090	0.22192597
220	0x3e57cbd1	0.21073844
221	0x3e4a5523	0.1975904
222	0x3e40912d	0.1880538
223	0x3e344848	0.17605698
224	0x3e28d20e	0.1648638
225	0x3e197c7a	0.1498889
226	0x3e104dfa	0.14092246
227	0x3e098172	0.13428286
228	0x3decfbe2	0.1157148
229	0x3db307cd	0.08741722
230	0x3da8dbcd	0.08245049
231	0x3d9be90d	0.0761281
232	0x3d926d45	0.07149748
233	0x3d8d5ef5	0.06902877
234	0x3d8b27bd	0.06794689
235	0x3d9074bd	0.07053516
236	0x3d93bfa5	0.07214288
237	0x3d8cd91d	0.068773486
238	0x3d835265	0.064122
239	0x3d65c6fa	0.056097962
240	0x3d341d16	0.04397305
241	0x3cfdc1fc	0.030976288
242	0x3c8e51ac	0.017372929
243	0x3bc6d200	0.0060675144
244	0xbacd6c20	-0.0015672483
245	0xbc976062	-0.018478576
246	0xbcf564fa	-0.029955376
247	0xbd2e5eb0	-0.04257077
248	0xbd58ccc0	-0.05292964
249	0xbd884d39	-0.06655354
250	0xbda8bc84	-0.082390815
251	0xbdcdffcc	-0.10058555
252	0xbdf4d2e5	-0.119542874
253	0xbe0c7c5c	-0.13719314
254	0xbe1ca24c	-0.15296286
255	0xbe2966ec	-0.16543168

global_orient_incam f4 [312, 3]
0	0x4044d739	3.0756361
1	0xbe112d44	-0.14177424
2	0x3f17a439	0.5923496
3	0x4044f2b5	3.0773137
4	0xbe15a5fe	-0.14614102
5	0x3f06b641	0.5262185
6	0x40451036	3.0791144
7	0xbe1f637d	-0.15565296
8	0x3eedc3c0	0.46438408
9	0x4045ac8a	3.088656
10	0xbe218149	-0.15771975
11	0x3ec6a70b	0.3879932
12	0x4045fd0f	3.0935705
13	0xbe26ed37	-0.16301428
14	0x3e9af0f7	0.30261967
15	0x404640a0	3.0976944
16	0xbe25e943	-0.16202264
17	0x3e5730a4	0.21014649
18	0x40468799	3.1020262
19	0xbe237be5	-0.15965231
20	0x3df615cc	0.12015876
21	0x4046c095	3.1055043
22	0xbe1e9b6a	-0.15488973
23	0x3d270901	0.04078007
24	0x4046a280	3.1036682
25	0xbe128a24	-0.14310509
26	0xbd38f30f	-0.045153674
27	0x40466667	3.1000001
28	0xbe0a22c9	-0.13489832
29	0xbdde54df	-0.108560316
30	0x40462638	3.0960827
31	0xbdeec750	-0.116591096
32	0xbe3f8a82	-0.1870518
33	0x4045b880	3.089386
34	0xbdd753fa	-0.10514064
35	0xbe7d23bd	-0.24720664
36	0x40455185	3.0831006
37	0xbdb1f18e	-0.08688651
38	0xbea41b7d	-0.32052222
39	0x4044798b	3.0699184
40	0xbd980336	-0.074224874
41	0xbece5e12	-0.40306145
42	0x4043e09f	3.0605848
43	0xbd605ecb	-0.0547779
44	0xbef1362f	-0.4711165
45	0x404325ba	3.0491776
46	0xbd1c849f	-0.038212415
47	0xbf0b7392	-0.5447322
48	0x4042af64	3.041955
49	0xbcb9d77e	-0.022685762
50	0xbf19b199	-0.6003662
51	0x40423667	3.0345705
52	0x3b9a49ae	0.0047084903
53	0xbf29d0fa	-0.663345
54	0x4041c6f8	3.027769
55	0x3cf57765	0.029964158
56	0xbf3c3a3d	-0.73526365
57	0x40417b3f	3.0231473
58	0x3d47715d	0.048692096
59	0xbf4afb4d	-0.79289705
60	0x4040f8cf	3.015186
61	0x3d89e3d0	0.06732905
62	0xbf5a549e	-0.85285366
63	0xc0405cb3	-3.005658
64	0xbda7a4fd	-0.08185766
65	0x3f68c21b	0.9092118
66	0xc03f3b44	-2.9879923
67	0xbdc707e1	-0.097183
68	0x3f737e3f	0.9511451
69	0xc03e6590	-2.974949
70	0xbddd59c1	-0.10808135
71	0x3f7c6e47	0.9860577
72	0xc03dd3d7	-2.9660547
73	0xbdf45049	-0.11929376
74	0x3f81d62d	1.0143486
75	0xc03daf8d	-2.9638398
76	0xbe02082c	-0.1269843
77	0x3f834632	1.0255797
78	0x403ddc95	2.9665883
79	0x3e07a815	0.13247712
80	0xbf832f3c	-1.024879
81	0x403dd188	2.9659138
82	0x3e0b8907	0.1362649
83	0xbf8179cf	-1.0115298
84	0x403dd2ac	2.9659834
85	0x3e0c8991	0.13724352
86	0xbf7ad60e	-0.9798287
87	0x403df59c	2.9681158
88	0x3e116126	0.14197215
89	0xbf72a34b	-0.94780415
90	0x403e9a16	2.9781547
91	0x3e19b931	0.15012051
92	0xbf67f56f	-0.90608877
93	0x403f2319	2.9865172
94	0x3e1c45b6	0.15260968
95	0xbf5d4c0b	-0.8644416
96	0x4040278a	3.0024133
97	0x3e208da8	0.15679038
98	0xbf4cf78c	-0.80065227
99	0x404116cc	3.0170164
100	0x3e1c0717	0.1523708
101	0xbf3ba68a	-0.73300993
102	0x4042c925	3.043527
103	0x3e11ce69	0.14238895
104	0xbf246bf3	-0.6422722
105	0x404403a0	3.0627213
106	0x3e03229e	0.12806174
107	0xbf0c22e5	-0.54740745
108	0x4044f0b8	3.0771923
109	0x3de9bcb6	0.11412947
110	0xbef0b9e9	-0.47016838
111	0x404655ef	3.098995
112	0x3dbc563e	0.09196137
113	0xbebdf41a	-0.37100297
114	0x4047879a	3.1176515
115	0x3d7e9f1d	0.06216346
116	0xbe70d0f3	-0.23517208
117	0x4048276f	3.1274068
118	0x3d267102	0.040635116
119	0xbdfeee33	-0.12447777
120	0x40487347	3.132036
121	0x3cc9ba23	0.02462489
122	0xbd33b4ee	-0.04387372
123	0x4048acad	3.1355393
124	0x3ba4aa67	0.0050251964
125	0x3d56b5fb	0.052419644
126	0x4048c342	3.1369176
127	0xbc1895d8	-0.009313069
128	0x3dfe0e36	0.12405054
129	0xc0488d8c	-3.1336393
130	0x3cf4ddc5	0.029890904
131	0xbe5271c3	-0.20551209
132	0xc047cadc	-3.1217566
133	0x3d401fa0	0.04690516
134	0xbe94149b	-0.2892197
135	0xc046eb03	-3.108094
136	0x3d84183c	0.06449935
137	0xbec28a89	-0.3799632
138	0xc04625f1	-3.0960658
139	0x3d98c26f	0.0745896
140	0xbee6bae7	-0.4506447
141	0xc04509c8	-3.078722
142	0x3db6b8d1	0.0892197
143	0xbf093e50	-0.53610706
144	0xc043f2ad	-3.0616868
145	0x3dcd22dc	0.100164145
146	0xbf1cc5ca	-0.612393
147	0xc0426500	-3.0374146
148	0x3dea0222	0.11426188
149	0xbf35a577	-0.70955604
150	0xc0408f3c	-3.0087423
151	0x3e050d54	0.12993366
152	0xbf52dbd6	-0.82366693
153	0xc03f0d54	-2.9851885
154	0x3e0ff8b3	0.14059715
155	0xbf673c06	-0.90325963
156	0xc03cfc58	-2.9529018
157	0x3e1b872c	0.15188283
158	0xbf801732	-1.0007079
159	0xc03ab1bd	-2.9170983
160	0x3e24f972	0.16110781
161	0xbf8cb52b	-1.0992788
162	0xc03901e2	-2.89074
163	0x3e384fac	0.17999142
164	0xbf97ae01	-1.1849977
165	0xc0372dbd	-2.8621666
166	0x3e47b05f	0.19500874
167	0xbfa0617d	-1.2529751
168	0xc0359f3e	-2.8378444
169	0x3e52c203	0.20581822
170	0xbfa739a4	-1.3064466
171	0xc033ab47	-2.807329
172	0x3e62d0b8	0.22149932
173	0xbfaebddb	-1.3651689
174	0xc0321aea	-2.7828927
175	0x3e71e769	0.23623432
176	0xbfb48422	-1.4102824
177	0xc030c0e1	-2.7617724
178	0x3e7d0453	0.24708681
179	0xbfb88605	-1.44159
180	0xc02f5a22	-2.7398763
181	0x3e82cf6a	0.2554887
182	0xbfbd7a37	-1.4802922
183	0xc02e78a1	-2.7261126
184	0x3e84249b	0.25809178
185	0xbfc064dd	-1.5030781
186	0xc02d736d	-2.71017
187	0x3e850d31	0.25986627
188	0xbfc3d34c	-1.5298858
189	0xc02c7755	-2.6947834
190	0x3e833eb7	0.25633785
191	0xbfc747ef	-1.5568827
192	0xc02b8735	-2.6801274
193	0x3e80e0bf	0.25171468
194	0xbfc9b729	-1.5759021
195	0xc02a714f	-2.6631658
196	0x3e7aa6cc	0.2447769
197	0xbfccfffd	-1.6015621
198	0xc029dec7	-2.6542222
199	0x3e753c4b	0.23948781
200	0xbfcf54d1	-1.6197759
201	0xc0294b4b	-2.6452205
202	0x3e6f538b	0.23371713
203	0xbfd1dc2e	-1.6395319
204	0xc02881e0	-2.632927
205	0x3e69f404	0.22846991
206	0xbfd4686d	-1.6594368
207	0xc027602a	-2.6152444
208	0x3e621925	0.22079904
209	0xbfd81a53	-1.6883034
210	0xc027031b	-2.6095645
211	0x3e5c7364	0.21528393
212	0xbfd9bfa0	-1.7011604
213	0xc0268f37	-2.6024911
214	0x3e54f58c	0.20796794
215	0xbfdb74b5	-1.7144991
216	0xc025d8e6	-2.5913634
217	0x3e4a9692	0.19784
218	0xbfdde1ee	-1.7334573
219	0xc02523c0	-2.580307
220	0x3e3aac68	0.1822983
221	0xbfdf1797	-1.7429074
222	0xc0241ca8	-2.564249
223	0x3e3034e0	0.1720767
224	0xbfe1a2a5	-1.762776
225	0xc023b505	-2.5579236
226	0x3e2212b7	0.15827452
227	0xbfe23e22	-1.7675211
228	0xc02347ef	-2.5512655
229	0x3e174f21	0.14776279
230	0xbfe3a4ae	-1.7784631
231	0xc0227e0b	-2.538943
232	0x3e071cfe	0.13194653
233	0xbfe5a0fe	-1.7939756
234	0xc022cf75	-2.5439122
235	0x3dfa558d	0.12223349
236	0xbfe5f046	-1.7963951
237	0xc02292a7	-2.540201
238	0x3de2562d	0.11051593
239	0xbfe70d8f	-1.8051013
240	0xc0227f51	-2.5390208
241	0x3dc941ab	0.09826978
242	0xbfe7e7e1	-1.8117639
243	0xc02245f2	-2.5355191
244	0x3db36b1a	0.087606624
245	0xbfe897db	-1.8171343
246	0xc0220c6e	-2.5320086
247	0x3d94b2ce	0.07260667
248	0xbfe8da01	-1.819153
249	0xc021c3d0	-2.5275764
250	0x3d6b9da8	0.0575234
251	0xbfe95c22	-1.8231242
252	0xc0211f6f	-2.5175436
253	0x3d34fea8	0.04418817
254	0xbfea681d	-1.8313023
255	0xc02076c3	-2.5072486

transl_incam f4 [312, 3]
0	0xbd4a3ed0	-0.04937631
1	0x3ed4d2e2	0.4156714
2	0x40848f91	4.142525
3	0xbd87fb76	-0.06639759
4	0x3ed42fcb	0.41442713
5	0x40842f9a	4.1308107
6	0xbdb08c98	-0.08620566
7	0x3ed2f908	0.4120562
8	0x40837979	4.108578
9	0xbdd3f73e	-0.10349892
10	0x3ed2f75a	0.4120434
11	0x4082d662	4.08867
12	0xbdf27f78	-0.11840719
13	0x3ed28e9c	0.41124427
14	0x408296f2	4.080926
15	0xbe065ec0	-0.13122082
16	0x3ecad704	0.3961717
17	0x40845b9b	4.1361823
18	0xbe0f1af2	-0.13975123
19	0x3ed12092	0.40845162
20	0x4082324c	4.0686398
21	0xbe1ac54e	-0.15114328
22	0x3ed0d7dd	0.4078969
23	0x4082521b	4.0725226
24	0xbe287298	-0.16449964
25	0x3ed157be	0.40887254
26	0x408254dd	4.0728593
27	0xbe2b4ed0	-0.16729283
28	0x3ed044f2	0.406776
29	0x40829d7c	4.081724
30	0xbe37b938	-0.17941749
31	0x3ed1999b	0.40937504
32	0x40824eb7	4.0721087
33	0xbe3c5b54	-0.18394214
34	0x3ed0c3c9	0.40774372
35	0x408273be	4.0766287
36	0xbe48a057	-0.19592415
37	0x3ed10302	0.40822607
38	0x40821203	4.0646987
39	0xbe5030de	-0.20331141
40	0x3ed0c3b2	0.40774304
41	0x408193bf	4.0492854
42	0xbe58be2b	-0.21166293
43	0x3ed136c2	0.4086209
44	0x4081eec5	4.0603967
45	0xbe66075c	-0.22463745
46	0x3ed3af0e	0.41344494
47	0x40814d57	4.040691
48	0xbe68757d	-0.22701068
49	0x3ed4c43e	0.4155597
50	0x40810554	4.0319004
51	0xbe729df8	-0.23693073
52	0x3ed88927	0.4229214
53	0x4080f9d8	4.0304985
54	0xbe7fc5ad	-0.24977751
55	0x3edc8db6	0.43076867
56	0x4080b9c5	4.022677
57	0xbe8561f1	-0.26051286
58	0x3ee1bc46	0.44088954
59	0x407fdb73	3.997769
60	0xbe8b896b	-0.2725328
61	0x3ee4aa75	0.44661298
62	0x407f2b2b	3.9870098
63	0xbe935e32	-0.28782803
64	0x3ee6426c	0.4497255
65	0x407ffded	3.9998734
66	0xbe99dd66	-0.30051726
67	0x3ee4dde8	0.4470055
68	0x407f698e	3.9908175
69	0xbea18318	-0.3154533
70	0x3ee2baa2	0.44283015
71	0x407f0b2f	3.9850576
72	0xbea75251	-0.3267999
73	0x3ee22694	0.44170058
74	0x407e42b4	3.9728212
75	0xbea706ab	-0.32622275
76	0x3ee281f8	0.44239783
77	0x407deb4c	3.9674864
78	0xbea6f9ba	-0.326124
79	0x3ee302ec	0.44338167
80	0x407d76ab	3.960368
81	0xbeabbb85	-0.33541504
82	0x3ee3cbd2	0.4449144
83	0x407cb634	3.9486208
84	0xbeaee66e	-0.3416018
85	0x3ee488cd	0.4463562
86	0x407bf148	3.9366016
87	0xbeb33990	-0.35004854
88	0x3ee40e9f	0.44542405
89	0x407ae403	3.9201667
90	0xbeb8547b	-0.36001953
91	0x3ee4a2dc	0.44655502
92	0x407a653c	3.9124289
93	0xbeb81f52	-0.35961396
94	0x3ee5291a	0.4475792
95	0x4079fb95	3.9059803
96	0xbebc8e0b	-0.3682712
97	0x3ee4dc32	0.44699246
98	0x40790ec0	3.8915253
99	0xbec0634e	-0.37575763
100	0x3ee61638	0.44938827
101	0x40782dc8	3.8777943
102	0xbec38462	-0.38186938
103	0x3ee62fbe	0.449583
104	0x40778b8d	3.8678925
105	0xbec68f4b	-0.387812
106	0x3ee71027	0.4512951
107	0x40765474	3.8489046
108	0xbec705a9	-0.38871506
109	0x3ee79f32	0.45238644
110	0x40765690	3.8490334
111	0xbecc0b69	-0.39852455
112	0x3ee8f750	0.45501184
113	0x4075f85c	3.8432837
114	0xbed255c1	-0.4108105
115	0x3eeb5e56	0.4597041
116	0x40746a47	3.8189867
117	0xbed71c3d	-0.42013732
118	0x3eed27c8	0.46319413
119	0x4074248d	3.814731
120	0xbed69668	-0.41911626
121	0x3eed8d74	0.46396983
122	0x40740617	3.8128717
123	0xbedb3c91	-0.42819646
124	0x3eed7300	0.463768
125	0x4073bf89	3.8085654
126	0xbed97448	-0.42471528
127	0x3eeda894	0.46417677
128	0x4073c396	3.8088126
129	0xbededfb0	-0.43530035
130	0x3eedfcbe	0.4648189
131	0x4073f79b	3.8119876
132	0xbee49a1e	-0.44648832
133	0x3eed463c	0.46342647
134	0x40731f47	3.798784
135	0xbee9e98b	-0.45685992
136	0x3eed7921	0.46381477
137	0x4072cb51	3.7936594
138	0xbee78612	-0.45219475
139	0x3eed817d	0.46387854
140	0x4072c8c7	3.7935045
141	0xbeee5ccc	-0.46555173
142	0x3eed63e0	0.4636526
143	0x4072ce2b	3.7938335
144	0xbeedd00d	-0.46447793
145	0x3eed218e	0.46314663
146	0x4072b703	3.7924201
147	0xbef632dd	-0.4808568
148	0x3eed86e4	0.46391976
149	0x4072e135	3.7949955
150	0xbf00c837	-0.50305504
151	0x3eeea70a	0.46611816
152	0x4073c330	3.8087883
153	0xbf023e34	-0.50876164
154	0x3eee4ecc	0.46544492
155	0x4073831b	3.804877
156	0xbf06441a	-0.52447665
157	0x3eee885c	0.4658841
158	0x4073647b	3.8030078
159	0xbf08602c	-0.53271747
160	0x3eef9bcb	0.46798548
161	0x4073e72c	3.8109846
162	0xbf0a40ee	-0.54005325
163	0x3eefe3ba	0.4685343
164	0x4073d55b	3.8098972
165	0xbf0c119f	-0.5471439
166	0x3eefb294	0.46815932
167	0x407440a0	3.8164444
168	0xbf0ddb4f	-0.55412763
169	0x3eef7905	0.46772018
170	0x407437b0	3.815899
171	0xbf0fef57	-0.5622458
172	0x3eee951a	0.4659813
173	0x4074bf3e	3.8241725
174	0xbf112502	-0.56697094
175	0x3eee0fae	0.46496338
176	0x4074521c	3.8175116
177	0xbf125700	-0.57164
178	0x3eee37bc	0.46526897
179	0x40748076	3.8203406
180	0xbf135932	-0.57557976
181	0x3eee68de	0.46564382
182	0x4074f0ad	3.8271897
183	0xbf12a67d	-0.5728529
184	0x3eedef3e	0.4647159
185	0x4074801d	3.8203194
186	0xbf1330e4	-0.57496476
187	0x3eede268	0.46461797
188	0x4074480c	3.8168974
189	0xbf13c90e	-0.5772866
190	0x3eed667c	0.46367252
191	0x407416e5	3.8138974
192	0xbf147770	-0.5799475
193	0x3eed53f6	0.4635312
194	0x4074a1bd	3.8223717
195	0xbf14eb05	-0.5817111
196	0x3eed9109	0.46399716
197	0x40752d2b	3.8308818
198	0xbf14a3dd	-0.58062536
199	0x3eedab68	0.46419835
200	0x40758d3f	3.836746
201	0xbf14a8f4	-0.580703
202	0x3eeded44	0.46470082
203	0x407627a3	3.8461692
204	0xbf143cb9	-0.57905155
205	0x3eee46b0	0.46538305
206	0x40768433	3.8518188
207	0xbf12ad2e	-0.572955
208	0x3eedd5ec	0.46452272
209	0x407644d7	3.8479517
210	0xbf12b123	-0.5730154
211	0x3eedfe3e	0.46483034
212	0x407679f0	3.8511925
213	0xbf123a1c	-0.5711992
214	0x3eede990	0.46467257
215	0x40768e6a	3.8524423
216	0xbf11915d	-0.5686243
217	0x3eec8db6	0.46201867
218	0x407681a2	3.8516622
219	0xbf10c698	-0.5655303
220	0x3eebb800	0.46038818
221	0x4076fd6e	3.8592181
222	0xbf127e22	-0.57223713
223	0x3eeb138b	0.45913348
224	0x4077644c	3.8654966
225	0xbf102afc	-0.5631559
226	0x3eeabb0a	0.45845824
227	0x4077c5dc	3.8714514
228	0xbf1057d9	-0.56384045
229	0x3eea994c	0.4582008
230	0x4077e031	3.8730586
231	0xbf103261	-0.5632687
232	0x3eea4b42	0.45760542
233	0x40780fbe	3.8759608
234	0xbf0f6510	-0.56013584
235	0x3ee94bb9	0.45565584
236	0x407812c5	3.8761456
237	0xbf0ebbb2	-0.5575515
238	0x3ee9eaac	0.45686853
239	0x407835df	3.878288
240	0xbf0ea374	-0.5571816
241	0x3ee9e405	0.45681778
242	0x407880fa	3.882872
243	0xbf0fc506	-0.5616001
244	0x3ee964b2	0.45584637
245	0x40787021	3.8818438
246	0xbf111b58	-0.5668235
247	0x3ee9fa56	0.45698804
248	0x4078b9e1	3.8863451
249	0xbf10eef2	-0.566146
250	0x3ee8f7e8	0.45501637
251	0x4077ef0c	3.8739653
252	0xbf11ad74	-0.56905293
253	0x3ee8d6e2	0.45476443
254	0x40775e85	3.865144
255	0xbf126f2b	-0.5720088
